s1_getting_started/exercise_files/final_exercise/checkpoint.pth (torch, 973263 bytes, 8 tensors)

fc1.weight f4 [256, 784]
0.01824842 0.0041754767 0.01495621 -0.032702908 0.025110673 -0.0015289672 -0.023326784 0.01435066
0.002391044 -0.0068598054 -0.016103502 0.0006949082 -0.0022129007 0.02615811 0.03487889 -0.0021472163
0.0068440735 0.022325492 0.024919648 -0.034059707 0.0067992955 0.022914927 -0.025931653 -0.025515273
0.00717061 -0.010573119 0.023994312 -0.023287505 0.028636958 -0.016596012 -0.012803445 -0.004856758
0.034495946 -0.0077284537 0.019705009 -0.0564404 -0.06318232 -0.059816673 -0.030334907 0.018803382
-0.04231554 0.05017799 0.06572712 0.023061683 -0.046960462 5.1966286e-05 -0.04115985 -0.023694236
-0.060464576 0.0024279468 0.016235415 -0.006898932 0.007823076 0.012760479 0.0124995075 -0.020762023
0.0065987185 0.021090705 0.01198018 -0.0058259834 0.016349617 -0.019184979 -0.008122168 -0.06101823
-0.03545982 -0.017274918 -0.00064357626 0.0017331712 -0.026431093 0.028667623 0.050223798 0.066251636
0.03445427 0.0072440137 -0.0068336218 -0.008981511 -0.038653325 -0.05950316 -0.086828545 -0.025199376
0.0050492883 0.026398052 0.026918646 0.02933963 -0.027716119 -0.02548937 -0.015504837 -0.009412877
-0.0017293568 0.042350747 -0.011875278 -0.0033049097 0.025098534 -0.048735004 0.018427862 0.0955693
0.11148274 0.12710154 0.15101293 0.05140774 -0.0040612146 -0.03314149 -0.049511395 -0.059605964
-0.06682001 -0.0748696 -0.07277886 -0.052636668 -0.021507146 0.00017901137 -0.013228362 0.030895535
-0.02417313 0.026022632 0.028601047 0.04495096 0.09400924 0.076909296 0.030417426 0.098796606
0.07610985 0.031933032 0.069274336 0.10106701 0.065543 0.02555212 0.0785518 0.038737625
-0.12183455 -0.049575984 -0.10737588 -0.12676468 -0.12858818 -0.16080937 -0.11206777 -0.12544495
-0.030819718 0.021227734 -0.017491734 -0.018768333 0.028737072 -0.024154093 0.07905378 0.06552271
0.05683664 0.061278004 0.035251357 0.06278347 0.013092242 -0.041033216 0.03440266 0.078960456
0.07012665 0.06126444 0.04552435 -0.020683864 -0.07230987 -0.012860284 -0.009252368 -0.048628483
-0.100901894 -0.14842224 -0.184375 -0.15636045 -0.062068593 -0.0069898423 -0.0006949779 0.032624055
-0.015224172 -0.0071364674 -0.007580041 0.099872224 0.026276305 0.028113853 0.07428978 -0.017825905
-0.043119628 0.05346132 0.0010764374 -0.02546143 0.018997716 -0.037324816 -0.017586114 -0.011508093
-0.07169341 0.027108168 0.051561277 0.0025256095 -0.086602665 -0.1301015 -0.20482884 -0.13425252
-0.078666165 -0.0628766 -0.043491334 0.02821296 0.033579636 -0.03184938 -0.005433826 0.115888245
0.042422906 0.10034942 -0.0071602436 -0.019663878 0.0074221394 0.016820433 -0.016891528 -0.01494189
-0.05906093 -0.0006884218 -0.026313607 -0.03447422 -0.08422574 -0.020342486 -0.005450463 -0.05585278
-0.15961082 -0.15426858 -0.154289 -0.15194702 -0.09946331 -0.011857661 -0.05908668 -0.0076926146
0.0016819239 -0.035416555 0.0042646774 0.12134764 0.10147402 0.021797245 0.055724923 -0.047251828
0.016921476 -0.01509011 -0.06385811 -0.049092174 -0.02741442 0.011104783 0.0033540002 0.017066002
0.017522536 -0.020035466 -0.018318951 -0.042407654 -0.11940035 -0.10991185 -0.114942014 -0.14975378
-0.10373861 -0.10421872 -0.024925493 -0.018658329 -0.019140586 -0.044503644 0.03973763 0.11111035
00000000: b67d 953c 70d2 883b e40a 753c 7cf3 05bd
00000010: e6b4 cd3c a067 c8ba d017 bfbc 081f 6b3c
00000020: 10b3 1c3b 38c8 e0bb 7eeb 83bc 802a 363a
00000030: 5006 11bb 8849 d63c 2bdd 0e3d 50b8 0cbb
00000040: 4044 e03b f3e3 b63c 4a24 cc3c 3182 0bbd
00000050: a0cc de3b 16b8 bb3c 9e6e d4bc 6805 d1bc
00000060: 70f7 ea3b e03a 2dbc b88f c43c 70c5 bebc
00000070: 0e98 ea3c 5cf4 87bc 8ac5 51bc 7025 9fbb
00000080: 9f4b 0d3d f83e fdbb 666c a13c 0d2e 67bd
00000090: bb65 81bd 5402 75bd e980 f8bc 8d09 9a3c
000000a0: 0f53 2dbd 7087 4d3d f19b 863d dbeb bc3c
000000b0: 9d59 40bd 60f6 5938 3b97 28bd 6a1a c2bc
000000c0: b4a9 77bd 301e 1f3b 2200 853c 7010 e2bb
000000d0: 5c2c 003c 5411 513c bcca 4c3c 1e15 aabc
000000e0: 103a d83b 6ac6 ac3c 8448 443c e4e7 bebb
000000f0: a2ef 853c d129 9dbc d712 05bc 40ee 79bd
00000100: 513e 11bd 2184 8dbc acb5 28ba 932b e33a
00000110: 0586 d8bc 5dd8 ea3c 78b7 4d3d f0ae 873d
00000120: ec1f 0d3d 315f ed3b 93ec dfbb 3027 13bc
00000130: f352 1ebd 96b9 73bd 2ad3 b1bd ec6e cebc
00000140: 8074 a53b ba40 d83c 7e84 dc3c aa59 f03c
00000150: ea0c e3bc 15cf d0bc 0008 7ebc 7838 1abc
00000160: 96ab e2ba fa77 2d3d 8790 42bc 2f97 58bb
00000170: 719b cd3c 5b9e 47bd 07f6 963c d6b9 c33d
00000180: 1051 e43d e826 023e 22a3 1a3e ec90 523d
00000190: f013 85bb 5fbf 07bd 76cc 4abd 6225 74bd
000001a0: eed8 88bd 3c55 99bd 150d 95bd 8c99 57bd
000001b0: c12f b0bc 00b5 3b39 c6bb 58bc a218 fd3c
000001c0: ba06 c6bc 6a2d d53c be4c ea3c 7f1e 383d
000001d0: eb87 c03d 9f82 9d3d f72d f93c e055 ca3d
000001e0: 7bdf 9b3d 36cc 023d b4df 8d3d 38fc ce3d
000001f0: 693b 863d ae52 d13c c4df a03d 58ab 1e3d
00000200: 6484 f9bd 3010 4bbd e3e7 dbbd 9ace 01be
00000210: 9fac 03be 36ab 24be c983 e5bd a474 00be
00000220: a279 fcbc c9e5 ad3c d34a 8fbc 0cc0 99bc
00000230: 026a eb3c cede c5bc f3e6 a13d c530 863d
00000240: 89cd 683d a5fe 7a3d ba63 103d 9f94 803d
00000250: d880 563c 7212 28bd cee9 0c3d 05b6 a13d
00000260: 909e 8f3d 6cf0 7a3d be77 3a3d 3571 a9bc
00000270: 3217 94bd f1b3 52bc 3e97 17bc a92e 47bd
00000280: a7a5 cebd 00fc 17be cdcc 3cbe f41c 20be
00000290: a33b 7ebd 0c0b e5bb 2d2f 36ba cda0 053d
000002a0: ce6e 79bc 07d9 e9bb fe61 f8bb cf89 cc3d
000002b0: 6841 d73c 064f e63c 3d25 983d a207 92bc
000002c0: 359e 30bd 42fa 5a3d 3f17 8d3a 7d94 d0bc
000002d0: 19a1 9b3c e8e1 18bd c110 90bc 718c 3cbc
000002e0: ffd3 92bd f311 de3c eb31 533d b284 253b
000002f0: bd5c b1bd 5439 05be a7be 51be 7e79 09be
00000300: ba1b a1bd 72c5 80bd f823 32bd de1e e73c
00000310: cd8a 093d 7f74 02bd 3c0e b2bb d156 ed3d
00000320: a4c3 2d3d ff83 cd3d 7aa0 eabb 2416 a1bc
00000330: 6b35 f33b 01cb 893c 1a60 8abc d4ce 74bc
00000340: e0e9 71bd 3477 34ba a28f d7bc d734 0dbd
00000350: 8b7e acbd 49a5 a6bc cc99 b2bb e2c5 64bd
00000360: 0571 23be 95f8 1dbe f0fd 1dbe 0098 1bbe
00000370: 6bb3 cbbd a346 42bc e004 72bd 5412 fcbb
00000380: 0074 dc3a f310 11bd b5be 8b3b 1d85 f83d
00000390: 9cd1 cf3d 2390 b23c d13f 643d 228b 41bd
000003a0: e89e 8a3c 823c 77bc 0ac8 82bd e014 49bd
000003b0: 3594 e0bc d6f0 353c c9ce 5b3b 00ce 8b3c
000003c0: 6c8b 8f3c 6b21 a4bc a011 96bc a6b3 2dbd
000003d0: 2c88 f4bd 7719 e1bd b866 ebbd 0e59 19be
000003e0: e974 d4bd a070 d5bd 8c30 ccbc 5ad9 98bc
000003f0: b8cc 9cbc 7449 36bd edc3 223d d38d e33d

fc1.bias f4 [256]
0.0586051 -0.014632672 -0.013109366 -0.0048413905 0.008806351 0.027367666 -0.023883864 -0.038154155
0.032001376 0.029293532 -0.037460294 -0.026612991 0.08200839 0.054117996 -0.005152798 0.058678526
0.068659104 -0.03821643 0.072631046 0.030476011 0.033320416 0.01184555 0.033364903 -0.010574898
0.03751864 0.061144445 0.010610792 -0.017539484 0.006981929 0.04869562 0.007824061 0.005156347
0.04129687 0.031464092 0.017199079 0.072659135 -0.003692315 0.028448414 0.02746185 -0.018354349
0.03498253 0.009406368 -0.0029962803 0.03645841 0.083797455 0.046224453 -0.009684944 0.010518
0.056265704 -0.019351024 0.03341942 0.04750595 0.011359931 0.0022259238 0.0024216655 -0.0017866684
-0.0051145237 0.019820163 0.10325979 -0.022946943 -0.0037008491 0.07800749 0.0069342656 0.06473297
-0.028754028 0.08546282 0.0671409 -0.024887301 -0.094181485 -0.023482645 0.0114605995 -0.0018771475
-0.055451877 0.05004402 0.026531136 -0.00800875 0.040406227 -0.023720495 0.029428184 -0.012770076
0.079099245 0.03300581 0.07690224 0.02819766 -0.037966676 0.03130565 0.010274983 0.005392576
0.037725855 -0.07528356 -0.024295216 0.00905787 0.029027248 -0.057462998 -0.019195933 0.059500277
-0.0510998 -0.026518913 -0.032853268 0.012524201 0.010495527 0.015414981 -0.0012495478 -0.04048521
-0.06457572 0.016847981 0.035489555 -0.02049542 -0.0030264365 0.05587119 -0.004582117 -0.001428657
-0.010485647 -0.009541751 0.0012403101 0.049840253 0.08125181 -0.044088658 -0.018576689 0.044718545
0.010296353 -0.009047514 0.009664763 -0.018890517 0.030024722 -0.0028432014 0.0063208626 -0.011574932
-0.012482043 -0.011177559 0.04676595 -0.0040003397 -0.016261218 0.04633852 -0.005743104 0.04995038
0.021552142 0.07540584 0.06939651 -0.02281291 -0.056028005 0.017876105 0.03391054 -0.04892096
0.019845264 -0.035275232 0.01965065 0.017448276 -0.041954424 0.048126344 0.0034109568 0.027053712
-0.0069008633 -0.021544974 0.05254621 0.04015702 -0.03609076 0.022534553 -0.031491645 0.06209588
-0.042646714 0.056853946 0.042892825 -0.05726423 0.057648905 0.003053594 -0.021158064 -0.07560399
-0.012712592 0.016859964 -0.03200485 0.017103085 -0.010236155 -0.08337134 0.0009596173 -0.0058429027
0.040360246 0.0047036824 0.037049305 0.039838217 0.034702525 -0.035373714 0.018448148 0.06372197
0.057841294 0.058077816 0.010517956 -0.013256324 -0.014666613 0.010747308 0.019321853 -0.0024525179
0.043549456 0.024954438 -0.0038137373 -0.0036164492 0.058889706 0.02156793 0.02689616 0.038474575
0.052073676 0.019821575 0.023321018 -0.04190945 0.00676231 0.009548197 0.026185105 0.034048926
0.0739989 0.018746996 0.0031704358 0.056089856 -0.0011287355 0.052057553 -0.04899488 0.011815651
0.060616132 0.034177203 0.019133631 0.060787216 0.009845903 -0.004056778 0.06637648 -0.01732577
0.075405814 -0.013274532 -0.0023909935 -0.049319297 0.06582607 0.05904437 0.019049864 -0.04654462
0.0052605295 -0.029081501 -0.024179874 -0.037460838 0.057255812 -0.023403483 0.04879628 -0.011614894
-0.018412996 0.017261425 0.057008382 0.02244529 0.0019018684 -0.0054153595 0.025420623 -0.04248927
0.049502477 0.036848314 -0.036543783 -0.050311964 0.07958564 0.03803567 -0.011922362 -0.011484052
00000000: e70b 703d e0bd 6fbc abc8 56bc 87a4 9ebb
00000010: 8348 103c 2832 e03c 18a8 c3bc 8847 1cbd
00000020: e013 033d fdf8 ef3c f76f 19bd 7d03 dabc
00000030: 04f4 a73d d5aa 5d3d cdd8 a8bb e558 703d
00000040: 259d 8c3d d588 1cbd 96bf 943d d4a8 f93c
00000050: fd7a 083d d613 423c a3a9 083d 5642 2dbc
00000060: 25ad 193d 9972 7a3d e3d8 2d3c f7ae 8fbc
00000070: aac8 e43b 0f75 473d 7e30 003c 93f6 a83b
00000080: e826 293d 7ee0 003d 15e5 8c3c 50ce 943d
00000090: c4fa 71bb a60c e93c acf7 e03c dc5b 96bc
000000a0: d749 0f3d 2b1d 1a3c 3e5d 44bb 6a55 153d
000000b0: 009e ab3d da55 3d3d 99ad 1ebc b153 2c3c
000000c0: de76 663d 0a86 9ebc cde2 083d 9995 423d
000000d0: 011f 3a3c cee0 113b ceb4 1e3b a52e eaba
000000e0: bc97 a7bb e55d a23c de79 d33d 3afb bbbc
000000f0: f289 72bb 64c2 9f3d d638 e33b b892 843d
00000100: 918d ebbc 2207 af3d 2b81 893d 74e0 cbbc
00000110: 39e2 c0bd ad5e c0bc 3dc5 3b3c 9e0a f6ba
00000120: 8221 63bd f5fa 4c3d d357 d93c 2237 03bc
00000130: 0081 253d 7c51 c2bc 6013 f13c 9539 51bc
00000140: c9fe a13d 1a31 073d ec7e 9d3d c7fe e63c
00000150: f282 1bbd 5a3a 003d 6758 283c 35b4 b03b
00000160: 6d86 1a3d 442e 9abd c306 c7bc 7667 143c
00000170: 8dca ed3c 525e 6bbd ca40 9dbc 90b6 733d
00000180: 064e 51bd 313e d9bc 2691 06bd 4e32 4d3c
00000190: 6ef5 2b3c 1e8f 7c3c dec7 a3ba d2d3 25bd
000001a0: 4640 84bd c704 8a3c 7f5d 113d 03e6 a7bc
000001b0: 2e57 46bb 30d9 643d 9525 96bb c641 bbba
000001c0: fecb 2bbc 0155 1cbc e791 a23a 4b25 4c3d
000001d0: 5967 a63d 4f96 34bd 242e 98bc cb2a 373d
000001e0: 09b2 283c 063c 14bc f458 1e3c 49c0 9abc
000001f0: 68f6 f53c 0155 3abb 3d1f cf3b c9a4 3dbc
00000200: 7c81 4cbc 1522 37bc a78d 3f3d 4815 83bb
00000210: 3f36 85bc 76cd 3d3d a630 bcbb c598 4c3d
00000220: 1e8e b03c 616e 9a3d c21f 8e3d 24e2 babc
00000230: 9f7d 65bd e970 923c c7e5 0a3d 5861 48bd
00000240: 8992 a23c c37c 10bd 66fa a03c b0ef 8e3c
00000250: 67d8 2bbd 2120 453d 5c8a 5f3b bf9f dd3c
00000260: a320 e2bb 167f b0bc b23a 573d b07b 243d
00000270: e8d3 13bd 629a b83c 62fd 00bd 4058 7e3d
00000280: 52ae 2ebd afdf 683d 63b0 2f3d e68d 6abd
00000290: 4221 6c3d ce1e 483b ad53 adbc 44d6 9abd
000002a0: 7a48 50bc e81d 8a3c 8517 03bd c51b 8c3c
000002b0: 8cb5 27bc 98be aabd d48e 7b3a d275 bfbb
000002c0: c950 253d 5921 9a3b 03c1 173d 662d 233d
000002d0: 3c24 0e3d 07e4 10bd 9220 973c aa80 823d
000002e0: feea 6c3d 01e3 6d3d 8153 2c3c 0e31 59bc
000002f0: 3c4c 70bc 7a15 303c dd48 9e3c 6cba 20bb
00000300: ea60 323d 406d cc3c e5ef 79bb f301 6dbb
00000310: 5536 713d 3aaf b03c 5655 dc3c 8497 1d3d
00000320: 354b 553d db60 a23c b80b bf3c 3ea9 2bbd
00000330: 5e96 dd3b 0a70 1c3c 2582 d63c e376 0b3d
00000340: bc8c 973d 4d93 993c 16c7 4f3b 7abe 653d
00000350: 14f2 93ba 4d3a 553d dbae 48bd 6f96 413c
00000360: 9f48 783d 65fd 0b3d 22be 9c3c 04fc 783d
00000370: b650 213c b8ee 84bb 64f0 873d c6ee 8dbc
00000380: 5d6e 9a3d 6c7d 59bc 37b2 1cbb 0803 4abd
00000390: d2cf 863d 82d8 713d 760e 9c3c 92a5 3ebd
000003a0: 8560 ac3b 543c eebc df14 c6bc 8970 19bd
000003b0: 1285 6a3d a9b8 bfbc 9cde 473d 654c 3ebc
000003c0: dad6 96bc d567 8d3c 9f81 693d 2fdf b73c
000003d0: 1d48 f93a 5473 b1bb e93e d03c 3b09 2ebd
000003e0: 1cc3 4a3d 42ee 163d efae 15bd eb13 4ebd
000003f0: ccfd a23d 4acb 1b3d 0356 43bc 9b27 3cbc

fc2.weight f4 [128, 256]
-0.017590627 0.08407369 0.09255893 0.0110749 0.0047067045 -0.06542403 -0.047885407 0.020864518
0.073228076 -0.03370064 0.037824903 -0.072184674 -0.03024797 -0.072947465 0.04109326 0.025281081
0.10981089 -0.03100761 -0.073899284 -0.06857657 -0.019189864 0.002123133 0.019888988 0.041827857
-0.0017801148 -0.12509643 0.03626779 0.14860176 -0.06559881 -0.10496094 0.04698376 0.033112925
-0.12421022 -0.051550735 0.00431648 -0.12054 -0.14075312 -0.09499299 -0.059264984 0.00018228403
0.084467 -0.05134077 -0.039491016 0.10446271 0.07453545 -0.056138005 0.02917478 0.033734128
0.06627564 -0.031374477 0.007084986 0.07300615 0.07564287 0.043526158 0.059831478 0.0319285
0.05060681 -0.004207645 -0.04991767 0.00079649093 0.12014243 -0.11613146 0.012140257 -0.031734016
0.031243835 -0.021861237 0.005930769 0.01840591 0.08115677 0.018165868 0.00095101603 0.12411961
0.081038296 0.0921918 0.07803257 0.02550552 -0.014389182 -0.007791424 -0.009302488 -0.02752493
0.014173537 0.05234851 -0.012227882 0.11620476 0.02991517 0.120002314 -0.04414991 0.01953274
0.047376294 0.14606956 0.0064290483 -0.089047946 -0.021007268 -0.05550647 -0.0880383 -0.0063636582
0.030856228 0.07834327 0.019172072 0.04564676 0.102104425 0.05730965 0.034807187 -0.08103738
0.05094327 -0.02689032 -0.0062472024 0.016687734 0.019137692 0.06195492 -0.05576315 -0.037762165
0.123949714 0.095278226 -0.12066105 0.06696887 -0.15139957 0.07180199 -0.18577792 0.1552569
0.057621744 -0.08366462 -0.06260733 0.14303917 0.015384991 0.038040552 -0.008377341 0.06093158
0.07767857 0.03517197 -0.107275136 -0.15501708 0.12311882 -0.10610127 0.101806454 -0.021420766
0.092561044 -0.0071573546 -0.0033081435 -0.0026226346 -0.08648041 -0.03529092 0.06628643 -0.06827612
-0.0130345505 -0.016541362 0.09843454 -0.030717606 0.04790804 -0.037366327 0.062458396 -0.027647803
-0.066818394 -0.013409942 0.07521169 -0.03949214 0.025659 0.113507345 -0.041161064 -0.0757717
0.0009981083 -0.11941789 -0.04085761 0.07843314 -0.08451328 0.08616763 -0.052664004 -0.08352586
-0.017008018 -0.22891913 -0.022325743 -0.0013152664 -0.0382573 0.03382516 -0.054271687 0.0636974
-0.008286772 -0.11598506 -0.14410074 -0.044961795 0.030792994 0.17053808 0.10835739 -0.006753591
-0.0014086512 0.05983934 -0.013419428 0.061792403 0.026212255 0.018817404 0.01391671 0.09268037
0.007186657 -0.06516265 0.05159446 0.0467255 0.0060992995 0.13846093 0.008352455 -0.01962756
0.0056127487 -0.09902376 -0.045104016 -0.028755117 -0.036211286 0.08737657 0.08871716 0.09278782
-0.0165899 -0.013890025 -0.09061471 0.021289824 0.09016273 -0.044873845 0.034316186 0.048863146
-0.051964976 0.065642804 -0.04657531 -0.08039411 -0.03351652 0.097299755 -0.21917538 0.09278654
0.0014036366 0.013206884 0.12799321 0.03460907 -0.040393826 -0.010601695 -0.015256891 0.026224619
0.012669743 -0.014123397 0.013214737 -0.028345143 0.07757215 0.036379833 0.01785203 0.043127544
0.16196175 0.12769875 0.015453592 -0.1511507 -0.045473088 0.05750243 -0.0039805127 0.027006043
-0.17212419 -0.037289064 0.04472173 -0.036405668 -0.015866313 -0.037152447 0.026866259 0.001909997
00000000: 381a 90bc d42e ac3d 898f bd3d 7f73 353c
00000010: b33a 9a3b 09fd 85bd 7d23 44bd 11ec aa3c
00000020: 9af8 953d af09 0abd 49ee 1a3d 8fd5 93bd
00000030: 97ca f7bc 7b65 95bd 6851 283d 451a cf3c
00000040: 88e4 e03d ac03 febc 8258 97bd df71 8cbd
00000050: 1034 9dbc 4324 0b3b 3bee a23c b053 2b3d
00000060: be52 e9ba 4719 00be 898d 143d 0f2b 183e
00000070: ab58 86bd c3f5 d6bd 0b72 403d 6ba1 073d
00000080: ee61 febd dd26 53bd 4271 8d3b addd f6bd
00000090: 9621 10be af8b c2bd d7bf 72bd 7f23 3f39
000000a0: 09fd ac3d b34a 52bd 55c1 21bd 8cf0 d53d
000000b0: 0ba6 983d f7f0 65bd f3ff ee3c cc2c 0a3d
000000c0: 86bb 873d 8682 00bd 2c29 e83b 4084 953d
000000d0: a6ea 9a3d 7c48 323d da11 753d 75c7 023d
000000e0: 1649 4f3d 49e0 89bb 7976 4cbd 9acb 503a
000000f0: 3c0d f63d 55d6 edbd eee7 463c 87fb 01bd
00000100: 12f3 ff3c 5616 b3bc e556 c23b fec7 963c
00000110: 8535 a63d 96d0 943c 9b4d 793a 6c32 fe3d
00000120: 68f7 a53d 0ecf bc3d 8acf 9f3d f4f0 d03c
00000130: 9bc0 6bbc 344f ffbb 7669 18bc f67b e1bc
00000140: 1f38 683c 646b 563d 7457 48bc c3fc ed3d
00000150: a910 f53c c6c3 f53d 89d6 34bd 2003 a03c
00000160: a50d 423d 4293 153e c4aa d23b c55e b6bd
00000170: 6f17 acbc c15a 63bd 6d4d b4bd 3c86 d0bb
00000180: 33c6 fc3c 7072 a03d c00e 9d3c 19f8 3a3d
00000190: 201c d13d 86bd 6a3d fb91 0e3d edf6 a5bd
000001a0: e4a9 503d 1749 dcbc 55b5 ccbb b7b4 883c
000001b0: a6c6 9c3c 71c4 7d3d e767 64bd 80ac 1abd
000001c0: 59d9 fd3d 3b21 c33d 241d f7bd fa26 893d
000001d0: 7d08 1bbe ec0c 933d 913c 3ebe aafb 1e3e
000001e0: c704 6c3d 5b58 abbd 4638 80bd dc78 123e
000001f0: 5411 7c3c 69d0 1b3d 1d41 09bc 6493 793d
00000200: f115 9f3d 7c10 103d 11b3 dbbd ccbc 1ebe
00000210: b825 fc3d 9f4b d9bd e77f d03d 9a7a afbc
00000220: a590 bd3d 3e88 eabb 70cd 58bb 82e0 2bbb
00000230: a41c b1bd 368d 10bd 2ec1 873d 5ad4 8bbd
00000240: de8e 55bc c081 87bc 0c98 c93d 7da3 fbbc
00000250: 393b 443d 6f0d 19bd 60d4 7f3d a57d e2bc
00000260: 15d8 88bd 60b5 5bbc 9608 9a3d 83c2 21bd
00000270: d332 d23c 8a76 e83d 8198 28bd 312e 9bbd
00000280: f5d2 823a 5e91 f4bd 4f5a 27bd 8ea1 a03d
00000290: 4c15 adbd a878 b03d 36b6 57bd 9b0f abbd
000002a0: 6654 8bbc c769 6abe 7ae4 b6bc 0465 acba
000002b0: b0b3 1cbd 408c 0a3d fd4b 5ebd c873 823d
000002c0: 3ec5 07bc 9389 edbd 258f 13be dc29 38bd
000002d0: 9741 fc3c 89a1 2e3e 7bea dd3d 3a4d ddbb
000002e0: 7ea2 b8ba 191a 753d 29dd 5bbc 081a 7d3d
000002f0: 15bb d63c f526 9a3c ea02 643c 35cf bd3d
00000300: 0c7e eb3b ff73 85bd b654 533d 3d63 3f3d
00000310: a2dc c73b b4c8 0d3e bcd8 083c fac9 a0bc
00000320: 26eb b73b f8cc cabd fdbe 38bd da8f ebbc
00000330: 4952 14bd 7df2 b23d 58b1 b53d 8a07 be3d
00000340: 8be7 87bc fd92 63bc 3494 b9bd ff67 ae3c
00000350: 3da7 b83d a3cd 37bd 218f 0c3d b924 483d
00000360: 3ad9 54bd bc6f 863d c1c5 3ebd aba5 a4bd
00000370: 9e48 09bd 1845 c73d 836f 60be df06 be3d
00000380: 3bfa b73a b061 583c a710 033e 3dc2 0d3d
00000390: ff73 25bd bbb2 2dbc 0af8 79bc 03d5 d63c
000003a0: c194 4f3c d265 67bc a082 583c 1334 e8bc
000003b0: 26de 9e3d 0503 153d 6c3e 923c 82a6 303d
000003c0: 4dd9 253e 76c3 023e 1031 7d3c 40c7 1abe
000003d0: fd41 3abd ab87 6b3d f66e 82bb c73b dd3c
000003e0: 5341 30be 6bbc 18bd 222e 373d 1c1e 15bd
000003f0: 12fa 81bc 2a2d 18bd a116 dc3c dd58 fa3a

fc2.bias f4 [128]
0.0078502195 -0.0055501233 -0.04364429 0.05016907 0.06536351 -0.030615488 0.048518315 0.09705687
-0.07180305 0.020061664 0.0578151 0.06565627 0.008985949 0.008863381 -0.026434196 0.05380575
-0.01166134 -0.013179929 0.043839637 0.06531372 0.082154505 -0.027792314 0.07958267 -0.010808383
0.0037090853 0.05888424 0.023118805 -0.053957768 0.122583255 0.11342592 0.043303497 0.032291736
0.078730635 -0.0496479 0.07872328 0.06964068 0.07941468 -0.008621847 0.011033368 0.001439117
0.020194883 -0.0437008 0.0058677006 0.06184283 0.06631156 0.028369045 0.0509098 0.07330756
0.024093963 -0.056640476 0.04152578 -0.0035976672 0.040239822 0.061865702 -0.027050028 0.051482838
-0.019718328 0.04349814 0.033013012 -0.044468623 0.06674764 0.016869165 0.029056069 -0.041368473
0.063720316 -0.07337371 0.017721143 -0.031400263 0.018695801 0.00079691486 0.029837789 0.042929426
0.005664799 0.07173754 0.107363574 0.042342752 0.03382449 0.046229407 0.06446646 0.10786825
0.10497053 0.057076864 0.07966549 0.015256484 -0.053322554 0.080093704 0.06145496 0.105741404
0.026057407 -0.05000693 0.055650596 0.05088507 -0.04930637 -0.016116139 0.03653617 0.11799637
-0.01647143 0.08220805 0.036609847 0.024223918 -0.042502463 -0.008529773 0.03851766 0.095739126
-0.021521538 0.03519522 0.033986352 0.09498389 0.11350829 0.09243692 -0.003389332 -0.07384875
-0.04149272 0.043512538 -0.043870013 -0.008815523 -0.009099712 -0.020284826 0.08266513 -0.03262129
0.059645135 -0.0057610064 0.052243717 0.13988863 -0.0047006956 0.076436 0.024394374 0.019861862
00000000: 359e 003c cfdd b5bb 5bc4 32bd 157e 4d3d
00000010: 4edd 853d 55cd fabc 24bb 463d c1c5 c63d
00000020: 7a0d 93bd 5c58 a43c 87cf 6c3d cb76 863d
00000030: cd39 133c b737 113c 878c d8bc 6b63 5c3d
00000040: 340f 3fbc a1f0 57bc 3191 333d 33c3 853d
00000050: 9f40 a83d b5ac e3bc 3dfc a23d a515 31bc
00000060: 2014 733b 9a30 713d a663 bd3c d202 5dbd
00000070: ee0c fb3d d94b e83d 025f 313d 5744 043d
00000080: 873d a13d 995b 4bbd ac39 a13d c69f 8e3d
00000090: 2aa4 a23d a642 0dbc 4dc5 343c c1a0 bc3a
000000a0: bd6f a53c 9cff 32bd d745 c03b e84e 7d3d
000000b0: 5bce 873d 3366 e83c cb86 503d 4622 963d
000000c0: b460 c53c d8ff 67bd f016 2a3d d7c6 6bbb
000000d0: 83d2 243d e466 7d3d 0598 ddbc abdf 523d
000000e0: 5588 a1bc 1b2b 323d a738 073d bb24 36bd
000000f0: fdb2 883d 3431 8a3c fe06 ee3c fd71 29bd
00000100: cc7f 823d f544 96bd ee2b 913c 909d 00bd
00000110: f027 993c 0de8 503a 616e f43c c4d6 2f3d
00000120: c79f b93b 22eb 923d 6fe1 db3d 986f 2d3d
00000130: 8c8b 0a3d 0c5b 3d3d fe06 843d 07ea dc3d
00000140: cafa d63d 6ec9 693d a927 a33d 55f6 793c
00000150: c068 5abd 2b08 a43d 32b8 7b3d f38e d83d
00000160: 5876 d53c 11d4 4cbd e1f1 633d dd6c 503d
00000170: 7af5 49bd fe05 84bc f3a6 153d 15a8 f13d
00000180: 18ef 86bc b25c a83d 35f4 153d 3d71 c63c
00000190: 1017 2ebd 76c0 0bbc b2c4 1d3d e012 c43d
000001a0: f04d b0bc dd28 103d 4635 0b3d ea86 c23d
000001b0: 0977 e83d 914f bd3d 8e1f 5ebb 033e 97bd
000001c0: 45f4 29bd 343a 323d 0bb1 33bd fc6e 10bc
000001d0: f516 15bc 5d2c a6bc 564c a93d e79d 05bd
000001e0: 754e 743d d3c6 bcbb 82fd 553d f73e 0f3e
000001f0: 4b08 9abb 7a8a 9c3d b6d6 c73c 58b5 a23c

fc3.weight f4 [64, 128]
-0.08129692 0.034071907 0.0524776 -0.0072933626 0.073943295 0.1330285 -0.13733648 0.08869767
0.15561633 -0.025773592 -0.0018598335 -0.016643321 0.04327778 0.16841742 -0.012883372 0.014452954
0.04247606 0.08259339 -0.06407621 -0.032011185 0.09416085 0.007826395 -0.0068677054 -0.03144776
-0.09573009 -0.01167028 0.05285973 0.052780766 -0.03133561 -0.01473648 0.11125077 -0.13345438
0.08860864 -0.046778683 0.10926517 0.050735775 -0.065473035 0.13490786 0.075886875 0.068045735
0.055240292 0.06917639 -0.076568075 -0.0066831396 -0.11175528 0.049390376 -0.037983704 -0.069631495
0.12068934 0.09520554 -0.086098656 0.0053296727 -0.10466979 -0.0030939612 -0.01803562 0.0031600674
-0.021354232 -0.080298394 0.0010215887 -0.025964823 -0.1625237 0.05557755 -0.026954988 -0.004709527
-0.1282516 0.09108313 -0.100730054 -0.07123712 -0.13785546 -0.047448553 -0.09615557 0.0763755
-0.10751917 0.0077946354 0.01133702 0.124206774 -0.11540325 0.08178247 0.11273282 0.020251935
-0.07741455 -0.056738876 -0.09315542 0.0122067975 -0.024678862 -0.13461174 0.06021608 0.01660079
0.03135859 0.105148345 0.15516144 -0.20238067 0.074222736 0.021891167 -0.05635875 0.074940585
0.06469623 0.17009276 0.04798206 0.051154636 -0.032990698 0.038077727 -0.12688194 0.11251625
0.10309701 -0.039632834 0.16414551 0.04192064 0.0173435 -0.0574598 -0.005484513 0.054829042
0.18519136 0.031419285 0.05133911 0.067687586 0.0829434 0.0912423 0.1027667 -0.04196199
-0.09887784 -0.14559598 0.014740712 -0.014733909 0.014398467 0.021512624 -0.05079396 0.21237125
0.109883174 0.05850913 0.20905107 -0.03647179 0.044064146 0.11377352 -0.020301005 0.068528146
-0.100491874 -0.022274408 -0.014824659 -0.16116673 0.053219266 -0.023776712 0.06498781 0.061585777
0.09391252 -0.064004295 0.02997588 0.05347951 0.0061924676 0.030817734 0.023685228 0.1215679
0.07719905 0.11782765 0.12355188 0.13293959 -0.056358628 -0.02748627 -0.029602803 -0.065091066
-0.07472513 0.1396776 -0.09848188 0.042211477 0.14477682 -0.00186597 -0.0095162485 -0.051952578
0.03998996 0.1321111 0.10589495 0.06577735 0.13903011 0.026410935 -0.02860297 -0.16787474
-0.16599788 0.06640907 0.06439763 -0.047311317 -0.18051392 -0.008870541 -0.019482452 -0.11172111
0.0045221373 0.103731394 -0.07055273 0.18078049 0.0015919253 -0.12768818 0.14142148 -0.071173556
-0.011682745 0.021269573 0.23404132 0.03150168 -0.109887384 0.1293926 0.05732054 0.07625318
0.016365286 -0.1494684 0.06467194 0.15569122 0.0008768363 0.06251968 -0.032994367 -0.05283222
0.09605884 -0.0040159556 -0.025469726 -0.037871435 0.02923234 -0.03191598 -0.039091676 -0.041779675
0.056126047 -0.025843423 0.09369919 0.07446527 -0.029340599 -0.065763466 0.05756504 0.051094882
0.035613447 -0.1511336 0.047424946 0.10897382 0.16741683 0.07631774 -0.013849039 -0.14073212
-0.007256937 -0.0032966312 -0.10835715 -0.05001401 -0.1649578 -0.07415788 0.017490946 -0.04525351
0.13347171 0.009002043 0.053186987 -0.096845925 0.086201556 -0.15707903 -0.12831451 -0.021888435
0.051983524 0.04151775 -0.0057424046 -0.1469059 0.036343012 -0.0584569 0.12942564 0.072964355
00000000: 007f a6bd fc8e 0b3d c0f2 563d 29fd eebb
00000010: 956f 973d a038 083e efa1 0cbe 20a7 b53d
00000020: e359 1f3e 2423 d3bc a8c5 f3ba 9357 88bc
00000030: 0b44 313d 9e75 2c3e c714 53bc 15cc 6c3c
00000040: 61fb 2d3d b926 a93d 633a 83bd 291e 03bd
00000050: 67d7 c03d 483a 003c 7d0a e1bb 5ecf 00bd
00000060: 230e c4bd b434 3fbc 7283 583d a530 583d
00000070: c559 00bd 4771 71bc 72d7 e33d 44a8 08be
00000080: 7278 b53d 019b 3fbd 6bc6 df3d 51d0 4f3d
00000090: ba16 86bd 4925 0a3e 946a 9b3d 905b 8b3d
000000a0: a543 623d 5aac 8d3d b9cf 9cbd 3dfe dabb
000000b0: f4df e4bd 904d 4a3d cd94 1bbd f59a 8ebd
000000c0: f92b f73d 1ffb c23d 7e54 b0bd 89a4 ae3b
000000d0: 1d5d d6bd 0ec4 4abb 70bf 93bc 2219 4f3b
000000e0: 12ef aebc 7c73 a4bd d4e6 853a 2eb4 d4bc
000000f0: 9d6c 26be 49a5 633d b5d0 dcbc 6052 9abb
00000100: 6354 03be cb89 ba3d 8f4b cebd c4e4 91bd
00000110: fb29 0dbe 6a59 42bd 36ed c4bd c26a 9c3d
00000120: 0333 dcbd 246a ff3b e9be 393c 1f60 fe3d
00000130: 8a58 ecbd 917d a73d 77e0 e63d 63e7 a53c
00000140: 858b 9ebd 0667 68bd 45c8 bebd 05ff 473c
00000150: 532b cabc a9d7 09be 23a5 763d 61fe 873c
00000160: dd71 003d 0458 d73d a4e2 1e3e e13c 4fbe
00000170: 1702 983d 1b55 b33c 6fd8 66bd 737a 993d
00000180: 757f 843d cc2c 2e3e d688 443d 8687 513d
00000190: 4121 07bd 64f7 1b3d 57ed 01be eb6e e63d
000001a0: 8624 d33d 0a56 22bd c315 283e fab4 2b3d
000001b0: f513 8e3c f85a 6bbd 6eb7 b3bb 6b94 603d
000001c0: cea2 3d3e 82b1 003d f548 523d ca9f 8a3d
000001d0: 3bde a93d 3edd ba3d 5977 d23d 56e0 2bbd
000001e0: 7780 cabd 1d17 15be 0783 713c 7e66 71bc
000001f0: 8ce7 6b3c 3e3b b03c 540d 50bd d977 593e
00000200: 6e0a e13d 45a7 6f3d 7c11 563e 7263 15bd
00000210: 9b7c 343d 1702 e93d 4b4e a6bc 7c58 8c3d
00000220: afce cdbd d278 b6bc 20e3 72bc e408 25be
00000230: 72fc 593d 61c7 c2bc 5418 853d 5e41 7c3d
00000240: 3555 c03d af14 83bd fa8f f53c 550d 5b3d
00000250: 2fea ca3b 7975 fc3c 8607 c23c 97f8 f83d
00000260: 891a 9e3d 9f4f f13d c508 fd3d 5121 083e
00000270: 4ed8 66bd e32a e1bc 9481 f2bc 774e 85bd
00000280: 7d09 99bd a507 0f3e deb0 c9bd f1e5 2c3d
00000290: 6040 143e 9093 f4ba 0aea 1bbc 3acc 54bd
000002a0: 83cc 233d 2248 073e 74df d83d 46b6 863d
000002b0: e95d 0e3e bf5b d83c c750 eabc 5be7 2bbe
000002c0: 59fb 29be 7a01 883d e8e2 833d 83c9 41bd
000002d0: a4d8 38be bf55 11bc aa99 9fbc 0ace e4bd
000002e0: 702e 943b 2071 d43d f37d 90bd 851e 393e
000002f0: 26a8 d03a b1c0 02be cbd0 103e 71c3 91bd
00000300: fc68 3fbc 873d ae3c 87a8 6f3e e807 013d
00000310: a30c e1bd 7e7f 043e f1c8 6a3d a12a 9c3d
00000320: 7e10 863c 3f0e 19be b972 843d 856d 1f3e
00000330: 7ddb 653a 510a 803d 1a25 07bd 9966 58bd
00000340: 7fba c43d 4798 83bb e3a5 d0bc 141f 1bbd
00000350: a978 ef3c 55ba 02bd 981e 20bd 2a21 2bbd
00000360: 6de4 653d 96b5 d3bc 5ce5 bf3d 3f81 983d
00000370: b25b f0bc ffae 86bd 52c9 6b3d de48 513d
00000380: 68df 113d c4c2 1abe a940 423d ab2d df3d
00000390: 516f 2b3e 7a4c 9c3d 14e7 62bc 151c 10be
000003a0: 9acb edbb 4b0c 58bb 5aea ddbd 7edb 4cbd
000003b0: b3ea 28be 16e0 97bd 2c49 8f3c bf5b 39bd
000003c0: cfac 083e 4e7d 133c 99da 593d 2857 c6bd
000003d0: 718a b03d 53d9 20be e164 03be 604f b3bc
000003e0: adec 543d 840e 2a3d c82a bcbb 806e 16be
000003f0: 69dc 143d 8170 6fbd 2888 043e 566e 953d

fc3.bias f4 [64]
-0.00764403 0.04560544 0.0635145 0.0942607 0.036538504 0.12307852 0.022530284 0.015962837
-0.0298702 -0.09123076 0.033332884 0.06794376 0.06298637 0.037039734 -0.07837019 0.09414742
0.07483809 0.016059695 -0.025078807 0.10526803 0.11720748 0.058610868 0.006561709 0.14247
0.038554553 0.15516868 -0.043293428 0.048612732 0.08647324 0.033223502 0.15215427 0.063454084
0.019288657 0.032541204 0.083523095 0.03140914 0.04730175 0.013654063 0.080924764 -0.032148845
0.121026896 0.10490039 0.046595313 0.0079021165 0.09707472 0.07503924 -0.042178158 0.033360403
0.11204888 0.022283897 -0.047152236 0.039765082 0.1409751 0.019893067 0.065948874 0.100586966
0.12842543 0.0037062822 -0.007935111 0.10971994 0.13189091 -0.01964613 0.007961903 0.039466433
00000000: c57a fabb c5cc 3a3d e413 823d c10b c13d
00000010: 66a9 153d 9710 fc3d 6e91 b83c 7fc4 823c
00000020: 5ab2 f4bc 31d7 babd 1088 083d 1926 8b3d
00000030: fffe 803d fab6 173d 8d80 a0bd 5dd0 c03d
00000040: b644 993d 9f8f 833c 1272 cdbc c496 d73d
00000050: 7a0a f03d f311 703d 9b03 d73b a8e3 113e
00000060: 61eb 1d3d 8ae4 1e3e 7354 31bd 251e 473d
00000070: e218 b13d 5e15 083d 54ce 1b3e 37f4 813d
00000080: 3f03 9e3c ed49 053d 280e ab3d dfa6 003d
00000090: 7bbf 413d 4bb5 5f3c e2bb a53d 82ae 03bd
000000a0: f3dc f73d 04d6 d63d bada 3e3d e177 013c
000000b0: 1ccf c63d 2cae 993d 01c3 2cbd eba4 083d
000000c0: e279 e53d b88c b63c b422 41bd b6e0 223d
000000d0: c75b 103e c9f6 a23c 3410 873d 8a00 ce3d
000000e0: f581 033e 19e5 723b 4502 02bc d9b4 e03d
000000f0: 690e 073e ecf0 a0bc a472 023c 8ea7 213d

fc4.weight f4 [10, 64]
-0.007399946 0.07337895 -0.05012763 -0.18573682 -0.0801504 0.0134390425 -0.27696604 -0.26040235
0.17366727 0.029710647 -0.17142731 0.1257664 0.19202639 0.05535336 0.13904634 0.14370258
0.06581431 0.13495164 0.13201782 -0.10487523 -0.092175074 -0.18446012 0.17626609 -0.27340555
-0.27566302 -0.09427835 -0.23293097 -0.29229146 -0.09552826 -0.08682091 -0.07952081 -0.23374927
-0.24437734 -0.18557341 0.03278439 0.14629439 0.097689316 0.048516452 -0.11391487 0.15264751
-0.068242066 -0.043818578 -0.07391998 0.037570924 -0.20349655 0.09386277 -0.13263625 0.13082562
-0.16648902 0.084019475 -0.041041166 -0.00651566 -0.17464778 0.17638008 0.055036817 -0.20888212
-0.15624097 0.13849847 -0.18192123 0.13515134 -0.19559737 -0.25405538 0.008214157 -0.11538255
-0.011410281 -0.18193384 -0.22587189 -0.0665993 -0.09237872 0.08797312 0.1757037 0.12823607
0.014605555 0.06193769 -0.24894503 -0.18634936 0.049543418 -0.3126999 0.07433108 -0.16893794
0.014798134 -0.1094107 -0.051140998 0.12169456 0.12291991 0.15928932 0.013583416 -0.092005745
0.15750527 -0.1952525 -0.1232592 0.14051528 0.07439235 -0.17355828 -0.14736632 0.037421145
0.14435726 0.13405617 -0.10835209 -0.04211288 -0.18922989 -0.081933044 -0.17570463 0.1720679
0.082469895 -0.07703568 0.15773673 -0.22823176 0.10252476 -0.082794785 0.0200752 -0.1472655
0.05552743 -0.20299838 -0.13844758 0.110436596 -0.13091543 -0.1382989 -0.22144468 0.14287348
0.1676214 0.10781192 0.09916317 -0.103822306 0.16606188 -0.1824154 -0.2151459 0.119685665
0.044513576 0.12181366 -0.093163654 0.13094443 -0.14555696 -0.15515453 -0.23268516 0.20577359
-0.10205947 0.0725998 -0.13010204 -0.16551778 0.1054532 0.06088204 0.011508167 0.02806042
0.07982207 -0.15214944 -0.16497572 -0.07524001 0.12829286 0.17716049 -0.20105948 0.029957326
-0.22436577 -0.1296051 -0.16733958 0.12949789 -0.12233446 -0.18017748 -0.17231585 -0.2187452
0.1021588 0.10102712 0.12961997 0.069412984 -0.05612648 0.05922305 -0.15753876 0.0085465945
0.072442755 0.06480894 -0.11513003 0.060528565 0.10616986 0.12362544 -0.08407491 0.11124957
0.08831099 -0.11203699 0.032927953 -0.19726963 -0.019849453 0.14599672 -0.008605953 0.003081736
-0.019946033 -0.07589653 0.1246766 -0.114904635 -0.12232052 -0.20113096 -0.081590265 -0.20856221
0.17622952 -0.0046580103 -0.12857033 0.12753369 -0.046815053 -0.17589588 -0.11460203 -0.06462523
-0.09302409 -0.10381585 0.056251477 -0.17331402 -0.18514122 -0.14548802 0.057109304 -0.047703978
-0.050345644 -0.1317282 0.06307661 -0.1955859 -0.13421029 -0.055505175 -0.15304191 0.12198948
0.13200472 -0.08578846 0.054410003 0.17747538 0.117708705 -0.22101113 0.06642287 0.14558673
0.07810868 0.06158858 0.043667287 -0.16441025 0.05606307 0.09714625 -0.0064634783 -0.21104982
-0.13563973 0.083576605 -0.03127042 -0.12137923 -0.010263577 0.093037196 -0.13100024 0.07439098
0.047306024 -0.17427786 -0.10162922 -0.17190076 0.068606935 0.108112685 -0.10866547 0.12322555
-0.1202691 0.09237841 0.11316502 0.11458836 -0.1595322 0.16007261 0.12864976 -0.17848448
00000000: 3f7b f2bb b447 963d a152 4dbd cb31 3ebe
00000010: e525 a4bd 6e2f 5c3c 7ece 8dbe 7553 85be
00000020: d5d5 313e be63 f33c a48a 2fbe e8c8 003e
00000030: 91a2 443e 34ba 623d 2a62 0e3e c526 133e
00000040: a7c9 863d c330 0a3e ae2f 073e d3c8 d6bd
00000050: 49c6 bcbd 1de3 3cbe 197f 343e d0fb 8bbe
00000060: b423 8dbe 0215 c1bd 7585 6ebe 3aa7 95be
00000070: 52a4 c3bd 29cf b1bd cedb a2bd f85b 6fbe
00000080: 0e3e 7abe f506 3ebe ed48 063d 32ce 153e
00000090: 5611 c83d 30b9 463d 334c e9bd a14f 1c3e
000000a0: 7fc2 8bbd 1c7b 33bd 5c63 97bd f8e3 193d
000000b0: 6661 50be 203b c03d ccd1 07be 27f7 053e
000000c0: 197c 2abe 6712 ac3d c81a 28bd 5181 d5bb
000000d0: ded6 32be fb9c 343e 496e 613d 32e5 55be
000000e0: a2fd 1fbe 8bd2 0d3e 8f49 3abe 1d65 0a3e
000000f0: ad4a 48be 8c13 82be ac94 063c b04d ecbd
00000100: 30f2 3abc dd4c 3abe f64a 67be 3765 88bd
00000110: 0e31 bdbd 402b b43d aceb 333e 5150 033e
00000120: 234c 6f3c 60b2 7d3d 72eb 7ebe 5ed2 3ebe
00000130: 0aee 4a3d 341a a0be e53a 983d 11fe 2cbe
00000140: df73 723c b812 e0bd 3979 51bd ff3a f93d
00000150: 6fbd fb3d bd1c 233e fa8c 5e3c 826d bcbd
00000160: 1049 213e 45f0 47be 526f fcbd 3de3 0f3e
00000170: 045b 983d 43b9 31be 32e7 16be ea46 193d
00000180: 64d2 133e 0546 093e b3e7 ddbd 8e7e 2cbd
00000190: 7bc5 41be 83cc a7bd eaeb 33be 9132 303e
000001a0: fae5 a83d e2c4 9dbd bd85 213e 96b5 69be
000001b0: 80f8 d13d 5090 a9bd bf74 a43c c4cc 16be
000001c0: bb70 633d cfde 4fbe 34c5 0dbe 952c e23d
000001d0: b20e 06be 3a9e 0dbe 65c2 62be 6d4d 123e
000001e0: f2a4 2b3e 7fcc dc3d 0f16 cb3d caa0 d4bd
000001f0: 200c 2a3e 1acb 3abe 354f 5cbe c21d f53d
00000200: de53 363d 7179 f93d 96cc bebd 4c16 063e
00000210: e20c 15be d4e0 1ebe 0545 6ebe 50b6 523e
00000220: 8e04 d1bd 34af 943d 7839 05be 7e7d 29be
00000230: d9f7 d73d 725f 793d c08c 3c3c f7de e53c
00000240: c179 a33d 10cd 1bbe 65ef 28be 6f17 9abd
00000250: 345f 033e 8f69 353e 89e2 4dbe 1169 f53c
00000260: 24c0 65be 33b7 04be 115b 2bbe 189b 043e
00000270: 7d8a fabd 7280 38be 9173 30be befe 5fbe
00000280: a238 d13d 4fe7 ce3d 19bb 043e 6528 8e3d
00000290: e1e4 65bd de93 723d d751 21be 0407 0c3c
000002a0: de5c 943d 8dba 843d 4bc9 ebbd cdec 773d
000002b0: 956f d93d 562f fd3d 772f acbd d1d6 e33d
000002c0: 64dc b43d a673 e5bd 76df 063d 0d01 4abe
000002d0: 529b a2bc 2a80 153e fcff 0cbc f3f6 493b
000002e0: dd65 a3bc a46f 9bbd 7256 ff3d 1f53 ebbd
000002f0: 2e83 fabd 46f5 4dbe cc18 a7bd 5591 55be
00000300: 8375 343e 39a2 98bb f1a7 03be 3198 023e
00000310: 24c1 3fbd 0d1e 34be 78b4 eabd 3c5a 84bd
00000320: 6a83 bebd 689d d4bd f367 663d 3b79 31be
00000330: a995 3dbe d0fa 14be 72eb 693d 3f65 43bd
00000340: 3c37 4ebd c2e3 06be 4f2e 813d ac47 48be
00000350: 6c6e 09be 6559 63bd 05b7 1cbe 9fd5 f93d
00000360: 3f2c 073e dcb1 afbd 06dd 5e3d 1bbc 353e
00000370: 4311 f13d be50 62be b708 883d b014 153e
00000380: 72f7 9f3d 4f44 7c3d 78dc 323d 295b 28be
00000390: 64a2 653d 9df4 c63d 96cb d3bb 721d 58be
000003a0: 24e5 0abe 362a ab3d 6915 00bd ac95 f8bd
000003b0: 9028 28bc 498a be3d ed24 06be 4c5a 983d
000003c0: f6c3 413d e575 32be fb22 d0bd c106 30be
000003d0: cb81 8c3d 2f6a dd3d 008c debd ad5d fc3d
000003e0: a54f f6bd e430 bd3d 10c3 e73d 4dad ea3d
000003f0: 695c 23be 13ea 233e c3bc 033e a3c4 36be

fc4.bias f4 [10]
0.07381493 -0.084622785 0.020909987 0.115671106 -0.02643939 0.09435596 0.085248835 0.029807135
0.10028929 -0.058298253
00000000: 482c 973d b64e adbd 6c4b ab3c f9e4 ec3d
00000010: 6b97 d8bc b33d c13d f196 ae3d 182e f43c
00000020: 7964 cd3d 26ca 6ebd
